heart_failure_model.onnx (onnx, 2181 bytes, 6 tensors)

linear1.weight f4 [16, 11]
0	0xbd3e8a7a	-0.04651878
1	0xbc494a55	-0.012285789
2	0x3e46e71b	0.19424097
3	0x3d4d5c7d	0.05013703
4	0x3dda90e7	0.10672169
5	0x3a614c98	0.0008594482
6	0x3db267d9	0.087112136
7	0xbe087516	-0.13325915
8	0xbcf248f7	-0.029575808
9	0xbe80dc0b	-0.2516788
10	0x3f17e84c	0.5933883
11	0xbeab2cc6	-0.33432597
12	0xbe4f8dda	-0.20268956
13	0x3ed00eb7	0.40636227
14	0xbe3f143b	-0.18660061
15	0x3dd5419c	0.104129046
16	0x3da634cb	0.08115538
17	0x3dc0416a	0.09387477
18	0x3d6baf7a	0.057540394
19	0x3e2ea77a	0.17056075
20	0x3e6f4c2f	0.23368905
21	0x3f2e775b	0.6815087
22	0xbe254eb4	-0.16143304
23	0xbe1240b1	-0.1428249
24	0x3e15b355	0.14619191
25	0xbdb32829	-0.08747894
26	0x3df057fa	0.1173553
27	0x3c6e60a2	0.014549406
28	0xbebbd509	-0.3668597
29	0xbe0166c9	-0.12636866
30	0xbbe5dc9e	-0.007014825
31	0x3d54dacd	0.051966477
32	0xbe9e4fcd	-0.30920258
33	0xbcfcf8e1	-0.030880393
34	0xbc5c29b7	-0.01343768
35	0x3ec8498b	0.3911861
36	0x3d805f2e	0.06268154
37	0xbeb3d4f3	-0.35123405
38	0x3e07c655	0.13259251
39	0x3ee3249e	0.44363874
40	0xbebeb7ab	-0.37249503
41	0x3d30b2bf	0.043139216
42	0x3e81899c	0.253003
43	0xbe415439	-0.18879785
44	0xbe33a945	-0.1754504
45	0x3c060b81	0.008181454
46	0xbe818881	-0.25299457
47	0x3c5ca3b1	0.013466761
48	0xbefbb2b2	-0.4915977
49	0x3ebd35bf	0.36955068
50	0x3d8d6d51	0.06905616
51	0x3d071421	0.03297818
52	0x3d3ac546	0.04559829
53	0xbf1691f7	-0.58816475
54	0xbebe4847	-0.37164518
55	0xbedf7b2d	-0.43648663
56	0x3e0b0185	0.13574798
57	0xbea61a71	-0.32442048
58	0xbe8b572a	-0.27214938
59	0xbf209352	-0.6272479
60	0x3e305fe9	0.17224087
61	0xbe850918	-0.259835
62	0xbe8667dc	-0.26251113
63	0x3d1fb3d8	0.03898987
64	0x3e35cb6b	0.17753379
65	0xbe667636	-0.22506031
66	0x3e682c3f	0.22673129
67	0x3deade90	0.11468232
68	0xbe64e9c6	-0.22354802
69	0x3e646dcb	0.22307508
70	0xbe8742f5	-0.26418272
71	0x3e044efd	0.12920757
72	0xbdb03634	-0.086040884
73	0xbe762536	-0.24037632
74	0x3e9c7b11	0.30562642
75	0x3c496b83	0.012293699
76	0xbe37dad3	-0.17954569
77	0xbd44417a	-0.047914006
78	0xbe9cda3b	-0.30635247
79	0x3df27422	0.11838557
80	0x3b27a564	0.0025580758
81	0xbe699ae7	-0.22812997
82	0xbf0d112a	-0.55104315
83	0x3dfcd8e6	0.123460576
84	0xbe1d86fd	-0.15383525
85	0xbdd336a3	-0.103131555
86	0x3dff7d77	0.124751024
87	0x3edfb0e3	0.4368964
88	0xbc3b080d	-0.011415494
89	0xbe971fbf	-0.29516408
90	0x3ddc887c	0.1076822
91	0x3e7bfb2e	0.24607536
92	0x3d7af377	0.061267342
93	0xbe1ed242	-0.15509894
94	0x3da792d7	0.08182304
95	0xbd37c509	-0.04486564
96	0xbe88e46a	-0.26736766
97	0xbe875da2	-0.26438624
98	0x3f38f970	0.7225561
99	0x3e2fb118	0.171574
100	0x3eba8dfd	0.36436453
101	0xbeefddb9	-0.46848848
102	0xbdd91c9d	-0.10601161
103	0x3bc6dc4e	0.006068743
104	0xbd90b1ed	-0.07065187
105	0xbdff8f15	-0.124784626
106	0xbdc578fa	-0.09642215
107	0x3eb8ba04	0.3607942
108	0x3f351812	0.70739853
109	0x3e07245c	0.13197464
110	0xbe6f51b7	-0.23371015
111	0x3e3b5198	0.18292844
112	0xbe315550	-0.173177
113	0x3e30ed0a	0.17277923
114	0x3df24235	0.11829034
115	0xbeb53141	-0.3538914
116	0xbef3325a	-0.47499353
117	0xbebaf507	-0.36515066
118	0x3d875907	0.066087775
119	0x3eb4a09f	0.35278794
120	0x3d455c55	0.048183758
121	0xbeae8863	-0.3408843
122	0xbdf88368	-0.12134439
123	0x3ddddcdb	0.108331405
124	0x3e23cc5a	0.15995923
125	0x3e279ee8	0.16369212
126	0x3bfa0dc4	0.0076310355
127	0x3eaf82a3	0.34279355
128	0x3d099e0c	0.03359799
129	0x3e11b229	0.14228119
130	0xbd8c733a	-0.06857915
131	0x3f56c78b	0.8389823
132	0x3e9ef9bd	0.3104991
133	0x3e8e9f9f	0.27856156
134	0x3e8b0d25	0.27158466
135	0x3f037ace	0.5135926
136	0xbdb8f0dd	-0.09030316
137	0xbd517928	-0.051140934
138	0xbb97c4cc	-0.0046316143
139	0x3e58e5f7	0.21181475
140	0xbe0f939f	-0.14021157
141	0x3ca7c305	0.020478735
142	0xbde88464	-0.113533765
143	0x3e1022a0	0.14075708
144	0x3e19be89	0.1501409
145	0xbe13d1e4	-0.14435536
146	0xbc49ad0e	-0.012309326
147	0x3e9992ff	0.29994962
148	0x3d6d1b4b	0.057887357
149	0x3dc87154	0.097872406
150	0x3de9098a	0.113787726
151	0x3eb55151	0.35413602
152	0x3f1bcc3a	0.608585
153	0x3e93161e	0.28727812
154	0x3f0b74c8	0.5447507
155	0xbd8fa8d7	-0.070146255
156	0x3da7b818	0.0818941
157	0xbe646764	-0.22305065
158	0x3e3921c4	0.18079287
159	0xbe606103	-0.21912007
160	0xbe895cd1	-0.26828626
161	0x3f0b9a51	0.54532343
162	0xbf05aeb2	-0.5221969
163	0x3d2e19ca	0.042505063
164	0x3ea93dcd	0.33054963
165	0xbeba6f44	-0.36413014
166	0x3dc7c6ea	0.09754737
167	0xbf1d7315	-0.61503726
168	0x3e4873e7	0.19575463
169	0xbeb15f9d	-0.3464326
170	0x3de50a9f	0.111836664
171	0xbe24a188	-0.16077244
172	0xbdbb5f02	-0.09148981
173	0xbde7fe59	-0.1132781
174	0x3d4d11a5	0.050065655
175	0xbe910d96	-0.28330678

linear1.bias f4 [16]
0	0xbf106c2a	-0.56415045
1	0xbe55ac3c	-0.20866483
2	0xbf46bee6	-0.7763504
3	0xbeeb274e	-0.45928425
4	0xbe98478a	-0.2974208
5	0xbdd334f6	-0.10312836
6	0xbe0d9eb9	-0.13830079
7	0xbe906d97	-0.2820861
8	0xbf0c1289	-0.5471578
9	0xbeabefa0	-0.33581257
10	0xbf0c1d99	-0.5473266
11	0xbf1e65cf	-0.618741
12	0xbf0e530d	-0.55595475
13	0xbf12dfa6	-0.5737251
14	0xbed4d98b	-0.41572222
15	0xbe97f8d0	-0.29682016

linear2.weight f4 [8, 16]
0	0xbf34074b	-0.7032363
1	0x3eac0c11	0.33602956
2	0xbf36ddf4	-0.71432424
3	0x3d27a4bb	0.040928584
4	0x3e7a0bbc	0.24418539
5	0x3c960a66	0.018315505
6	0x3dfbbbd6	0.12291686
7	0xbd879d17	-0.066217594
8	0xbf607182	-0.876732
9	0xbe6a77a6	-0.22897205
10	0x3e77f44b	0.24214284
11	0xbcef990c	-0.029247783
12	0xbe3cc12a	-0.18433061
13	0x3e15a247	0.14612685
14	0xbf8331cd	-1.0249573
15	0xbda71375	-0.08158008
16	0xbf898246	-1.0742881
17	0xbe58e5a4	-0.21181351
18	0xbea266ff	-0.31719205
19	0xbdb130d0	-0.08651888
20	0x3ed97ac1	0.42476466
21	0xbf0e5076	-0.55591524
22	0x3cc3b9d2	0.023892317
23	0x3d8c6093	0.068543576
24	0xbf4a2f5d	-0.7897852
25	0xbd1220f6	-0.035675965
26	0x3d59920c	0.053117797
27	0xbde1f6f6	-0.11033432
28	0xbdf7e229	-0.121036835
29	0x3ea048e1	0.31305602
30	0xbf106eee	-0.56419265
31	0xbf7697a4	-0.96325135
32	0xbf3420cc	-0.70362544
33	0x3e6aaca5	0.22917421
34	0xbec2a519	-0.38016585
35	0x3db44385	0.08801941
36	0x3da2cee4	0.079496175
37	0x3e72a2e0	0.23694944
38	0xbd5a9d4f	-0.053372677
39	0xbf22671a	-0.6343857
40	0xbfa6533d	-1.2994152
41	0x3e1c581d	0.15267988
42	0x3d51b893	0.051201414
43	0xbd31ae67	-0.043379214
44	0xbdf19828	-0.117965996
45	0xbcab053d	-0.020876521
46	0x3e333a31	0.17502667
47	0x3ee976bb	0.45598397
48	0xbf752218	-0.9575515
49	0x3ced00cb	0.028931042
50	0xbf1020e6	-0.563002
51	0xbcb15aaf	-0.021649687
52	0x3ea0edea	0.31431514
53	0xbe8f0429	-0.2793286
54	0x3d559dbc	0.05215238
55	0xbef83cf0	-0.48483992
56	0xbf73108b	-0.9494712
57	0x3dadf55c	0.08494064
58	0x3e81b8c9	0.25336292
59	0x3d1ab025	0.03776564
60	0xbdf99756	-0.12187068
61	0xbeb3c27d	-0.3510932
62	0xbf0e51ac	-0.5559337
63	0x3eff860c	0.49906957
64	0x3d6f0f16	0.058363996
65	0x3cf2bb6e	0.029630389
66	0xbee2781b	-0.44232258
67	0xbd627c37	-0.05529424
68	0xbdef12db	-0.11673518
69	0x3ee8d844	0.45477498
70	0x3e3fd989	0.18735327
71	0xbec1db27	-0.37862512
72	0x3e730bdf	0.23734997
73	0xbd5cfe8d	-0.053953696
74	0x3de456a2	0.111493364
75	0xbe10fd52	-0.14159134
76	0xbd66e60d	-0.056371737
77	0xbf7b4a3a	-0.98160136
78	0x3ec1fd04	0.37888348
79	0x3f35ce0f	0.71017545
80	0xbf3e468f	-0.74326414
81	0x3e5f0e00	0.21782684
82	0xbef20129	-0.4726651
83	0x3debdb17	0.115163974
84	0x3e340a52	0.17582062
85	0x3e3d1ff0	0.18469214
86	0xbe2feb9a	-0.17179719
87	0xbe9242f2	-0.285667
88	0xbfb1cd5d	-1.3890797
89	0x3e226f13	0.15862684
90	0x3a45de3e	0.000754807
91	0xbdd2e5ca	-0.10297735
92	0xbe11112d	-0.14166708
93	0x3e2f61c6	0.17127141
94	0x3e150e50	0.14556241
95	0x3eb2d841	0.34930614
96	0x3f00bde6	0.5028976
97	0x3f0c1a2c	0.54727435
98	0x3f8bc78a	1.092027
99	0xbf807e85	-1.0038611
100	0x3e64ca3b	0.2234277
101	0xbe9a835b	-0.3017834
102	0xbe9f1d88	-0.31077218
103	0x3e8b1327	0.2716305
104	0xbd1b72f6	-0.037951432
105	0xbfa08040	-1.2539139
106	0xbf979b4f	-1.1844271
107	0x3f785b1b	0.97014016
108	0xbf17de1c	-0.59323287
109	0xbf81abfa	-1.0130608
110	0x3d9f50db	0.07779094
111	0x3b7c9c3b	0.003854527
112	0xbf7dbd35	-0.9911683
113	0xbdcb5c14	-0.09929672
114	0xbec4b8b0	-0.38422155
115	0xbd83bf96	-0.064330265
116	0x3f124dcd	0.57149965
117	0xbec6d924	-0.3883754
118	0x3d9f57fa	0.07780452
119	0xbf18638a	-0.59526885
120	0xbf54fab9	-0.8319507
121	0x3d5897f2	0.05287928
122	0x3e0f6ef5	0.1400717
123	0xbddf0178	-0.10888952
124	0xbdafb043	-0.08578541
125	0x3e49eccc	0.19719237
126	0xbf06cdfe	-0.5265807
127	0x3e8f7d08	0.2802508

linear2.bias f4 [8]
0	0x3e8570f9	0.26062754
1	0x3ee0dfaf	0.43920657
2	0x3e8be257	0.2732112
3	0x3eb77b76	0.3583638
4	0xbdd23d5d	-0.1026561
5	0x3ec2b0b2	0.38025433
6	0x3f2c7bc8	0.67376375
7	0x3ec0956b	0.37613997

linear3.weight f4 [2, 8]
0	0xbf5bd3dd	-0.8587015
1	0xbf4663a4	-0.7749579
2	0xbf1fc270	-0.62406063
3	0xbee3af6c	-0.44469774
4	0xbf4123af	-0.75445074
5	0xbeae096c	-0.33991563
6	0x3fa987a0	1.3244514
7	0xbf0923ec	-0.5357044
8	0x3f554be8	0.8331895
9	0x3f92a554	1.1456704
10	0x3f3a198f	0.7269525
11	0x3f477c7c	0.77924323
12	0x3f7063e2	0.9390241
13	0x3ec85306	0.39125842
14	0xbf866cd0	-1.0501957
15	0x3f274cb1	0.65351397

linear3.bias f4 [2]
0	0x3ecbf1c1	0.3983288
1	0xbed4edf4	-0.41587794
