insurance_regression_model.onnx (onnx, 15509 bytes, 15 tensors)

linear1.weight f4 [64, 6]
000000 af 64 c9 be 1b d7 ae 3e 1a 98 80 be 36 d0 2c bf
       -0.39334628 0.34148487 -0.25116044 -0.67505205
000010 d1 9c 01 bf e3 ae 8a 3e 92 58 29 be 2c 34 17 3f
       -0.5062991 0.27086553 -0.16537693 0.5906398
000020 ea dd 8f be 8b 08 c3 3e 71 d1 f0 be df 6c 49 3f
       -0.28098994 0.38092455 -0.4703479 0.7868175
000030 9e 24 01 3f 72 26 eb bc 7d 5e e8 3e 36 25 90 be
       0.504465 -0.028704856 0.4538459 -0.2815339
000040 ac 0f f7 3e a7 d1 09 bf d3 b0 5b be 7f fb b2 bd
       0.48254144 -0.5383553 -0.21454172 -0.08739375
000050 a0 ed 85 3f 07 4e 4c 3d 44 6d d5 3e 26 83 88 3d
       1.0463142 0.0498791 0.41684926 0.066656396
000060 9b b5 82 3f 29 44 48 3e 3a ce 8e be c4 aa c3 3d
       1.0211672 0.19557251 -0.27891713 0.09554055
000070 64 14 a0 3e 5e 0e 74 3e fb 98 4b 3e 8c b3 86 be
       0.31265557 0.23833606 0.19882576 -0.26308858
000080 54 95 84 3f af 8c 62 3e 46 81 0a 3f e9 ed d8 bd
       1.0358071 0.22123979 0.54103506 -0.10592253
000090 4e ce cc 3e 89 7b 27 bd 6d 9f 87 bb c6 f5 d9 3d
       0.40001148 -0.040889297 -0.004138878 0.10642581
0000a0 20 7a 98 3f d9 6e 14 3d 47 74 d5 3d f9 9d 14 bd
       1.191227 0.036238525 0.10422569 -0.036283467
0000b0 d3 b7 88 bf e1 2f 5a 3e 9a c5 ca 3e 9c f3 e1 bd
       -1.0681099 0.21307327 0.39603883 -0.11032793
0000c0 af 43 28 be f6 05 a3 be 58 a4 a9 3e 38 c3 4e bf
       -0.16432069 -0.31840485 0.33133197 -0.8076663
0000d0 f9 0e 8a be 21 ac 3f bf 6b 5c 22 bd 16 d2 2e be
       -0.26964548 -0.7487202 -0.039638918 -0.17072329
0000e0 5b 0d 95 3f 88 d8 eb 3d c4 d2 8a 3e c7 fc 91 bd
       1.1644701 0.115159094 0.27113926 -0.071282916
0000f0 19 24 7f 3e 7f ca 29 be 6f 36 5b 3f c6 8f 21 3e
       0.24916114 -0.16581152 0.85629934 0.15777501
000100 48 77 11 3f cb c0 16 3e 43 b0 82 3e 64 55 c2 be
       0.56822634 0.14721982 0.25525102 -0.37955773
000110 fe ec 12 3f 0b fa cd 3e 97 89 b3 3e d8 fe e2 be
       0.5739287 0.4022983 0.3506591 -0.44335055
000120 ba 09 01 be 59 c3 e9 3e 7e 55 39 bf 8e 6b 55 3e
       -0.12601367 0.4565685 -0.72396076 0.2084181
000130 e8 49 8e be 69 1b eb 3e 42 96 a0 be f4 d1 41 be
       -0.2779076 0.4591935 -0.31364638 -0.18927747
000140 5b 09 8b 3f 5e 54 7a 3d 1f c3 b2 3e ee 24 0e 3c
       1.086223 0.061115615 0.3491449 0.008675797
000150 d8 cb 4e be f0 ba c0 3e 8c 11 2a bf a9 ab 07 be
       -0.20194948 0.37642622 -0.66433024 -0.13249077
000160 5f e9 ec bd 79 1b 3e bf ec c9 68 3d 8d ea f1 be
       -0.115679495 -0.7426067 0.056833193 -0.4724926
000170 56 59 a7 bf f9 95 41 3d ef 40 bc 3d 03 f6 f3 be
       -1.3074138 0.047262166 0.091920726 -0.4764863
000180 df 85 1e 3f 01 f5 54 3d 15 c0 e7 3e c8 42 49 bd
       0.6192302 0.051991466 0.45263734 -0.049135953
000190 6e 17 00 3f 55 99 d3 be 6f af bd bc 2c 91 2b bd
       0.5003575 -0.4132792 -0.023154942 -0.041886494
0001a0 af a6 07 c0 58 fa 8b 3d f1 9e 0e 3e 4d 78 0c 3c
       -2.1195486 0.06834859 0.13927819 0.008573604
0001b0 7a a4 4d be 3c 27 93 bd 96 96 51 3e b7 df 11 3f
       -0.20082274 -0.07185218 0.204676 0.56981987
0001c0 06 7c ba be 90 6a 10 bf ef 57 7e 3d 69 70 11 bf
       -0.36422747 -0.564126 0.06209558 -0.5681215
0001d0 0c bd ba 3e d4 c1 d5 3e 3e e6 55 3e 2d a1 ea be
       0.36472356 0.41749442 0.20888612 -0.45826092
0001e0 58 e3 6e 3f 84 39 d7 3e 19 1c 62 be 7c 43 d1 be
       0.9331565 0.42036068 -0.22081031 -0.408718
0001f0 db 61 59 be fa 28 10 3e 49 94 3d 3f 35 a6 35 3e
       -0.21228735 0.14078131 0.7405439 0.17739184
000200 45 33 08 3e fd 37 76 3d c2 60 89 bf 83 1c d1 3c
       0.13300808 0.06011199 -1.0732653 0.02552629
000210 31 59 5c bf 58 a6 fe bd 40 28 13 bf 78 be d3 3d
       -0.86073595 -0.12434071 -0.5748329 0.103390634
000220 08 51 a4 be 35 57 5b bd e8 fa 03 bd 43 7a 45 3d
       -0.32093072 -0.053549964 -0.032221705 0.0482123
000230 0c ff 21 be 88 49 00 bf e1 5e bc 3f b3 aa 40 bc
       -0.15819949 -0.501122 1.4716455 -0.011759448
000240 e5 9a 37 be 61 d4 1e 3d 69 02 cb 3e 66 39 84 be
       -0.17930181 0.03877676 0.39650276 -0.25825042
000250 a2 9a 45 bf e8 10 aa 3e d1 94 75 bf 37 78 8f 3e
       -0.77189076 0.33216023 -0.959302 0.28021404
000260 c0 1e 15 bf f5 0c ec bd 84 fb 11 3d e1 80 9d be
       -0.58250046 -0.11525909 0.035640255 -0.3076239
000270 a7 a3 47 3d 9e be 5a bd de d3 a9 3e c5 a6 21 bd
       0.048740055 -0.053404443 0.33169454 -0.039465684
000280 af 03 c9 3f 5b b8 fb 3d e6 a0 94 3c 02 42 0b be
       1.5704249 0.122910224 0.018143129 -0.13599399
000290 7e 82 e4 bf 72 8e 91 3c ae 96 40 3e ce b6 f2 bd
       -1.7852323 0.017768119 0.1880748 -0.118512735
0002a0 32 1f 69 bf 88 b6 12 3c ec aa 52 be 24 ef b7 3e
       -0.91063225 0.008954652 -0.20573014 0.35924637
0002b0 9c 83 01 3f 08 38 cb 3e 11 9b 27 3f 66 26 3e 3e
       0.50591445 0.39691186 0.6547099 0.18569335
0002c0 57 5e e6 3e 7d a1 30 3d b7 cd 9b 3e b8 8d ad be
       0.4499385 0.043122757 0.30430385 -0.33897185
0002d0 13 3c 45 3b 39 4b 4d bd 93 09 db bf cb 93 4d 3e
       0.0030095621 -0.050120566 -1.7112297 0.2007591
0002e0 8c d3 7a 3e 42 c7 c9 3d fd 2e 88 3f 16 5c 27 be
       0.24494761 0.098524585 1.063934 -0.16343722
0002f0 fd 8e 03 be 24 a9 84 bd cc 22 0f bf b6 c8 4e ba
       -0.12847514 -0.064775735 -0.5591247 -0.00078881846
000300 e6 09 0b be 61 03 34 bd 08 bb b0 bf 1c cf 5f 3e
       -0.13577995 -0.043948535 -1.3807077 0.2185635
000310 78 72 4c 3e bc 94 82 3e 3a 20 db bd ec 8e 13 3f
       0.19965541 0.255041 -0.10699506 0.57639956
000320 a4 a2 6c bf fd ee 1c 3e 96 7b 5c be 1c ad 96 be
       -0.9243567 0.15325542 -0.2153152 -0.29428947
000330 52 00 3e bf 62 b8 d1 3d c8 77 a0 3d ec bb 82 3e
       -0.7421924 0.10240246 0.078353465 0.25533998
000340 a5 f1 ad 3e a9 03 13 3f 5a 53 6f 3f d7 b4 5b 3d
       0.33973423 0.5742746 0.9348656 0.05363926
000350 76 63 5f 3d 15 a2 67 3e 32 ce 22 bf f6 91 7e be
       0.054538213 0.22620423 -0.6359588 -0.24860367
000360 d2 33 26 3d e9 8f 95 be 6d ab ab bf 98 5d c3 3d
       0.040576763 -0.29211357 -1.341169 0.09539336
000370 ee 58 ac 3e 88 e1 6a 3d 3c 13 6f bf ae ba a6 3e
       0.33661598 0.05734399 -0.93388724 0.325643
000380 00 e3 0e bf aa da 28 be 36 4d 28 bd 10 cf 6c be
       -0.55815125 -0.16489664 -0.04108926 -0.23125863
000390 d8 c9 9c bd ca 07 4b 3e 83 4f 27 3e 81 b9 40 bf
       -0.07655686 0.1982719 0.16338925 -0.75283056
0003a0 51 4a 50 bf 66 81 83 3d 84 f5 85 3f 49 be 00 bb
       -0.813634 0.06421165 1.046555 -0.0019644669
0003b0 de 3a 28 bc a3 45 23 3c ae 8c fa be d3 d3 ce 3d
       -0.010267941 0.009965333 -0.48935455 0.10098996
0003c0 73 ea 73 bf d8 1e ac 3d 6c ea 41 bf 4c c2 41 be
       -0.95279616 0.084043205 -0.75748324 -0.18921775
0003d0 68 ad 9b 3c c8 cd 92 bd 55 01 c7 bc 07 21 81 3b
       0.019003585 -0.07168156 -0.024292627 0.0039407047
0003e0 fb 8b 84 3e a8 72 ef 3e e4 04 a2 bf 88 fb 94 3d
       0.25888047 0.46767163 -1.2657743 0.07274538
0003f0 90 6e 4c 3d 9d 97 79 3d 21 29 f3 3d 06 71 3e 3e
       0.049910128 0.060935605 0.11873079 0.18597803

linear1.bias f4 [64]
000000 70 8d 8e 3e ad 66 30 be c1 2a c6 3e 9e 96 bb bd
       0.27842283 -0.17226668 0.38704494 -0.09159587
000010 33 58 a3 3d a2 7e 88 bd ac 0c a3 bd 24 75 a0 3e
       0.07975807 -0.06664778 -0.07961401 0.3133937
000020 e8 3f 4a bd b6 c8 9e 3d 04 eb 2a 3e 7a a8 64 3e
       -0.049377352 0.07753126 0.16691214 0.22329894
000030 5b c6 4e bc d2 6d ac 3e b5 bc a0 be 44 86 b2 3e
       -0.012620534 0.33677536 -0.31393972 0.34868062
000040 fa a7 cb 3e b9 03 4f bd 5c 06 ae be 05 39 13 be
       0.39776593 -0.05054066 -0.33989227 -0.1437722
000050 57 cb c4 3e 3c 38 ac 3e 49 ca 08 3d bc f5 98 3e
       0.38436386 0.33636653 0.03339604 0.2987498
000060 a5 e8 86 3e b8 3c 6d be da 23 70 3d ab 66 fc bd
       0.2634937 -0.23167694 0.05862794 -0.1232427
000070 09 23 25 bd fc ae 0e 3d 7b e8 df 3d 5a ca bc 3e
       -0.040316615 0.034834847 0.10933014 0.36873132
000080 cb b9 ae be 6b 8d b5 3d b6 f1 9d be 74 bf 59 be
       -0.34126124 0.08864864 -0.30848473 -0.2126444
000090 ad b4 16 3d 40 0e 9d be f7 26 d3 3d 36 f1 35 3e
       0.0367934 -0.30674934 0.10310166 0.17767796
0000a0 19 a3 5b 3e a4 d0 6d be 58 02 d5 3d 95 e2 50 be
       0.21448936 -0.23224121 0.10400838 -0.20398934
0000b0 40 b0 32 3e 43 b0 d2 3e f9 cd ba 3e ca 25 2f be
       0.17450047 0.41150102 0.3648527 -0.17104259
0000c0 98 35 ba 3c 4f 1c b3 be 1a 15 08 be fc 08 3e be
       0.022730634 -0.34982535 -0.132893 -0.18558115
0000d0 89 c4 bb 3e a3 14 a0 be f5 cd 52 3d 47 66 27 3e
       0.36673382 -0.31265745 0.051465947 0.1634761
0000e0 25 4f 6d 3e 86 62 1a be c0 5c 56 be 79 e9 a4 be
       0.23174722 -0.15076646 -0.20933819 -0.32209376
0000f0 6b 9a 9b 3d 99 2e a5 be 34 77 b8 3e 72 99 99 bd
       0.07597812 -0.32262114 0.36028445 -0.074999705

bn1.weight f4 [64]
000000 2d fb 8e 3f fe e1 ab 3f 22 02 5c 3f 37 e6 49 3f
       1.1170403 1.3428342 0.85940754 0.78866905
000010 f3 ea 93 3f 4a db 8f 3f 2c 17 2d 3f f0 08 9b 3f
       1.1556076 1.1238797 0.6761348 1.2112103
000020 ed 52 a1 3f 78 cd 54 3f 5d 92 39 3f 83 69 5e 3f
       1.2603432 0.8312602 0.7248896 0.8687975
000030 07 b4 8f 3f b3 ba 3d 3f 20 dc 6e 3f 1e 9d 98 3f
       1.1226815 0.74113005 0.93304634 1.1922948
000040 ee 05 48 3f e7 b9 af 3f 75 f3 8f 3f 01 df 6b 3f
       0.7813405 1.3728608 1.1246172 0.9213715
000050 3f 77 5d 3f b5 30 83 3f 29 4c 86 3f d2 b2 1c 3f
       0.8651008 1.0249239 1.0491992 0.6121036
000060 bd fc a6 3f 72 79 8d 3f f2 fe 4b 3f 52 e4 c9 3f
       1.304588 1.1052687 0.7968589 1.5772803
000070 18 14 64 3f 72 8f 0f 3f 0f 36 b2 3f 60 d7 bb 3f
       0.8909316 0.56078255 1.3922747 1.4675102
000080 c1 ad b2 3f 17 10 57 3f c2 de 88 3f 57 51 be 3f
       1.3959275 0.84008926 1.069298 1.4868573
000090 5a 9d ab 3f b0 83 81 3f fc 0e b3 3f 34 bb be 3f
       1.3407395 1.0118313 1.3988948 1.490088
0000a0 e2 0e 87 3f da de 76 3f 46 e8 3e 3f 89 44 41 3f
       1.0551417 0.96433794 0.7457317 0.754952
0000b0 c8 a7 64 3f 35 23 84 3f 68 54 bd 3f 39 01 3a 3f
       0.89318514 1.0323244 1.4791384 0.72658116
0000c0 ad 4f 91 3f 10 10 7e 3f 7d 2e b3 3f e9 6f cc 3e
       1.135244 0.9924326 1.3998562 0.3992913
0000d0 c9 78 a4 3f 90 93 ad 3f 5b f8 78 3f 4c 34 a5 3f
       1.2849361 1.3560658 0.9725396 1.2906585
0000e0 0a 23 98 3f 62 d6 3a 3f 98 73 93 3f ae b0 15 3f
       1.1885693 0.7298337 1.1519651 0.58472717
0000f0 2a 36 90 3f ac 04 2b 3f e0 dd a5 3f f0 bd ab 3f
       1.126653 0.66804004 1.2958336 1.3417339

bn1.bias f4 [64]
000000 f1 aa 8b be 13 1f 3b bf 40 26 e8 be 33 c4 ee be
       -0.27278855 -0.7309429 -0.45341682 -0.46634063
000010 80 a3 0c bf 5a 46 ab be a3 62 4a bc 54 da ca be
       -0.5493698 -0.3345211 -0.012352618 -0.39619696
000020 db 1a b9 be b9 6f a6 be 9a 64 45 be 86 5e 3c bf
       -0.36153302 -0.32507113 -0.19276658 -0.7358173
000030 16 13 ca be 49 7a d7 be 09 34 10 3d 1a 37 53 3d
       -0.39467686 -0.42085484 0.035205875 0.05156622
000040 ec 47 1a be 81 fc f9 bd 42 a3 2f bf 7d 9b f2 be
       -0.15066499 -0.122063644 -0.68608487 -0.47384253
000050 cc d0 a0 3c be c1 04 3e 88 fd 0c bd b1 d4 c8 bd
       0.019630812 0.12964532 -0.034421474 -0.09806193
000060 27 43 8e be 43 7b 22 be 17 17 d4 be e0 f9 96 be
       -0.27785608 -0.15867333 -0.41423866 -0.29487514
000070 e4 8a 89 be 59 49 cb 3c f2 eb 53 be 61 22 6e bf
       -0.26863778 0.024815248 -0.20695475 -0.9302121
000080 e9 12 04 bf 12 2d 1d bd a3 71 0c bf 55 44 31 bf
       -0.51591355 -0.03837306 -0.54860896 -0.6924489
000090 2f 82 e6 be 23 27 fd bd 66 ef c9 be b4 22 59 bf
       -0.45021197 -0.1236098 -0.3944046 -0.8481858
0000a0 c9 e1 b2 3c ed 6a b6 3d 0d de f6 be 43 65 68 be
       0.021836178 0.08907113 -0.48216286 -0.22694878
0000b0 39 0d 9e be 3c d5 11 bf 99 2f 8d be e9 24 02 be
       -0.30869463 -0.56965995 -0.27575377 -0.12709393
0000c0 4a ae 61 bf c5 42 3b be 91 41 d7 be 6d 14 cb bb
       -0.8815657 -0.1828719 -0.4204221 -0.0061975033
0000d0 69 ae 4b bf f5 4e 01 bf 3b 71 62 be 96 7b 78 bd
       -0.79563004 -0.50511104 -0.22113506 -0.060664736
0000e0 03 fe bd be e4 4e 22 be f3 cd 27 bf 7c 4c f8 be
       -0.37107858 -0.15850407 -0.6554863 -0.48495853
0000f0 5e cc 19 bf 3c 3e 1f be 97 bb 18 bf 35 e3 0c bf
       -0.60077465 -0.15551084 -0.5966124 -0.5503419

bn1.running_mean f4 [64]
000000 08 a5 4f 3e d5 31 5c be cf 5a d9 3e 70 04 8e bd
       0.20277798 -0.21503384 0.42452094 -0.0693444
000010 12 de de 3d c8 22 84 bc 40 4b c8 ba 39 38 b3 3e
       0.108822 -0.016129866 -0.0015281215 0.35003832
000020 58 6e a0 bd 3d 0d d0 3d 14 7c 56 3e 87 2f 90 3e
       -0.078335464 0.10158775 0.2094577 0.2816126
000030 2d df 25 bd 98 d0 b6 3e d6 5f a2 be 91 b1 c0 3e
       -0.04049604 0.3570602 -0.31713742 0.37635472
000040 37 08 e3 3e 20 f2 20 bd 1d e6 a5 be da ef bd bd
       0.44342205 -0.03929341 -0.32402125 -0.09274264
000050 cb 83 b8 3e 1e d8 92 3e b4 1e 19 3c f1 32 b8 3e
       0.3603805 0.2868051 0.009345699 0.35976365
000060 91 ec 49 3e 9d 3b 7c be 79 cc 13 3e 8f 96 da bd
       0.19719149 -0.24632116 0.14433469 -0.10673248
000070 ad f2 af bc b2 19 8f 3d 9c 50 05 3e ca 09 b5 3e
       -0.021478022 0.06987323 0.13019031 0.3535903
000080 1e 26 a8 be 26 2e a2 3d cb 31 9d be fe 6c 60 be
       -0.3284158 0.07918958 -0.30702052 -0.21916577
000090 ea 7c 82 3d 06 16 a9 be fd b2 9e 3c 31 61 28 3e
       0.06371482 -0.33024615 0.019372458 0.16443326
0000a0 24 99 45 3e 93 73 92 be 34 2e 42 3e d4 cb 23 be
       0.192967 -0.286038 0.18962938 -0.15995723
0000b0 3a ac 63 3e c9 d0 bd 3e f0 f5 c4 3e 91 72 19 be
       0.22233668 0.37073353 0.38468885 -0.1498511
0000c0 2c 5a 39 bd 86 a2 b3 be 86 6d e3 bd ab ea 01 be
       -0.04525201 -0.35084933 -0.11104874 -0.12687175
0000d0 d3 04 b0 3e 15 07 bd be b6 b7 1d 3d f6 fc dd 3d
       0.3437868 -0.36919466 0.03850528 0.10839264
0000e0 9c db 1f 3e e2 4d 00 be b8 d4 7e be 6c 80 6e be
       0.15611118 -0.1252971 -0.24885833 -0.23291177
0000f0 80 d2 d1 3d f4 db 70 be 86 7e a2 3e bb 4f b1 bd
       0.10245228 -0.23521405 0.31737155 -0.086577855

bn1.running_var f4 [64]
000000 06 2e 95 3f 83 d4 a3 3f 9b 30 85 3f c0 c0 a4 3f
       1.165467 1.2799228 1.0405458 1.2871323
000010 73 6f a4 3f fa 52 c3 3f cf 48 d7 3f 7b 24 a8 3f
       1.2846512 1.5259697 1.6819094 1.3136133
000020 5a 8d ae 3f 03 49 b2 3f 29 80 a4 3f 06 c0 74 3f
       1.3636887 1.3928531 1.2851611 0.95605505
000030 8d 94 68 3f ac 7d ac 3f 17 82 b6 3f 02 23 0f 40
       0.9085167 1.3475852 1.425845 2.2365117
000040 ff 31 88 3f ec 78 88 40 cd 84 50 3f f8 c5 46 3f
       1.0640258 4.264761 0.8145264 0.77645826
000050 f4 aa 9d 3f 84 22 ee 3f 4e ec a9 3f 13 8e 27 40
       1.2317796 1.8604283 1.327524 2.6180465
000060 bc 2b 84 3f 05 d6 d5 3f 7e 1d 31 40 e9 1a 49 40
       1.0325847 1.6705939 2.767425 3.1422675
000070 a5 a2 b5 3f 22 2c 71 3f 63 03 33 40 2a 8f c7 3f
       1.419026 0.94207966 2.7970817 1.5590565
000080 db e4 ec 3f 25 a4 b9 3f 21 66 8b 3f 2b 3e c1 3f
       1.8507341 1.4503218 1.0890542 1.5097097
000090 99 25 eb 3f 53 2d c9 3f 90 11 a9 3f c0 44 b5 3f
       1.8370849 1.5716957 1.3208485 1.4161606
0000a0 8b 45 df 3f c6 ed 00 40 6a ec fd 3f 02 b9 d5 3f
       1.7443098 2.0145125 1.9837773 1.6697085
0000b0 11 ab ba 3f 97 7f 96 3f ac 5f 2b 40 e7 10 cb 3f
       1.4583455 1.1757687 2.6777143 1.5864533
0000c0 ca 33 a5 3f 77 b3 a2 3f 82 c3 9f 3f 74 8f d1 3f
       1.290643 1.2711018 1.2481539 1.6371903
0000d0 9d e7 94 3f 17 d1 6e 3f 82 ef af 3f ac 1e 01 40
       1.1633183 0.93287796 1.3744967 2.017497
0000e0 47 83 8f 3f 3e ce 87 3f d8 ee 93 3f fe d0 17 40
       1.1211938 1.0609815 1.1557264 2.3721309
0000f0 29 53 e7 3f ab a6 07 40 09 a3 8a 3f 6a 55 cc 3f
       1.8072253 2.1195476 1.0831004 1.5963566

linear2.weight f4 [32, 64]
000000 5d 32 82 be 83 a4 c1 3d 74 49 59 be b1 be ed ba
       -0.2542905 0.09455206 -0.21219426 -0.0018138496
000010 66 cf 31 be a9 ad 4f be 9e ea 1a bf a0 78 5b bd
       -0.17364272 -0.2028109 -0.6051425 -0.053581834
000020 93 e0 55 be cd 94 4e 3e c4 8b 48 be 92 7a 28 3e
       -0.2088645 0.2017395 -0.19584566 0.16453007
000030 f9 bd e6 3d ee ee e5 be 67 b0 33 3e 3a 0e 82 3c
       0.11266703 -0.4490885 0.17547761 0.015875924
000040 2e 75 39 be da da e5 3c 71 92 3b 3f c6 c7 15 3e
       -0.18111107 0.028058458 0.73270327 0.14626989
000050 33 93 39 3e 28 e2 43 3f 21 aa 5e 3d c3 66 28 bf
       0.18122558 0.7651696 0.054361466 -0.657818
000060 d6 e1 a0 be 43 83 c7 bc 73 18 7c bf 54 73 22 be
       -0.314223 -0.024354583 -0.98474807 -0.15864307
000070 bf 56 87 be 09 b3 48 be 63 5c 9a 3d 2a 6f c6 3e
       -0.2643337 -0.19599546 0.075371526 0.38756686
000080 e7 8d c5 3d 4d 60 28 3e 37 81 25 bf 31 7d 28 3e
       0.09646206 0.16442986 -0.6465029 0.16454007
000090 df 8d b4 bd f3 c3 bd 3d 26 18 95 be 54 0c 54 3e
       -0.08816122 0.0926589 -0.29119986 0.20707828
0000a0 ac 34 1c be 03 06 4c 3f 71 e5 53 bf 29 2b 5c bf
       -0.15254468 0.79696673 -0.82771975 -0.8600336
0000b0 fc e7 ea be bd 95 0e bf 21 74 d3 bd 0b 23 51 3e
       -0.45880115 -0.5569723 -0.10324884 0.20423524
0000c0 4d e4 a7 bd 6c 5b 7f 3e a1 ee 08 3f f2 4b ad be
       -0.08197842 0.24937218 0.5348912 -0.33847004
0000d0 d7 d4 5a 3c 7a 28 a2 bc 3f 8d 61 3e 82 96 43 3f
       0.013356409 -0.019794691 0.22026537 0.7640153
0000e0 79 4c 17 bf a8 4b b8 bc 44 25 1a bd 0e 8e d9 be
       -0.59101063 -0.022497013 -0.037633196 -0.42491192
0000f0 cb 7b 65 bd 4d fd 1c bf 60 f7 7e be e4 8f 54 be
       -0.05602626 -0.61324006 -0.24899054 -0.20758015
000100 5d d1 27 bd e0 85 cf 3e f8 66 6b bf 11 95 2c bf
       -0.04097115 0.40531826 -0.9195399 -0.6741496
000110 06 ef e2 3d 31 a7 25 bf 7e d9 0f 3e d7 78 f1 3e
       0.11080746 -0.6470824 0.1404781 0.47162506
000120 af c4 4c 3e 50 c3 87 bf fd f2 2d be 62 74 cf be
       0.19996904 -1.060648 -0.16987224 -0.4051848
000130 04 c0 35 3f 19 bb 03 bf d3 e3 da 3e 86 e2 45 3e
       0.7099612 -0.51457363 0.4275194 0.19324693
000140 bf 00 48 bf c3 0d d6 3e c6 63 f0 3e d4 b5 d4 bc
       -0.7812614 0.41807374 0.4695112 -0.025965609
000150 1a 53 ba be 47 05 21 be 3d 0b dc 3e 2e 7c 19 3e
       -0.36391526 -0.1572467 0.42977324 0.14988777
000160 d5 16 1a bd 9e ad 11 3f 18 ba d2 3c dc 7c 5e 3e
       -0.03761943 0.56905544 0.025723502 0.21727318
000170 b8 c4 e4 3d 7c 41 79 bf 7b a8 87 3e c2 d2 09 bf
       0.111703336 -0.97365546 0.26495728 -0.53837216
000180 ba c5 e0 3e 1f 0c cd 3e f0 d2 08 be a3 60 77 be
       0.43900853 0.4004831 -0.13361716 -0.24157958
000190 38 0a 0b 3f 6b 22 a5 3e ec 94 b1 3d 49 eb a8 be
       0.5431247 0.3225282 0.08670983 -0.32992008
0001a0 d2 b6 95 3e 18 3a be 3e 55 a2 e0 3d 7c bd f3 3d
       0.29241043 0.37153697 0.109684624 0.11901376
0001b0 8a 08 6c be af 76 99 be c2 b7 18 3e 2b 97 a8 bf
       -0.23050132 -0.2997336 0.14913848 -1.3171133
0001c0 78 5a 71 be 9e 2c 3a be 10 ff 46 3e 29 63 65 bd
       -0.23569667 -0.18181083 0.19433236 -0.05600277
0001d0 9f 88 8b 3e cf 3c 86 3e 24 fa 93 3e 5e e1 db 3e
       0.2725267 0.26218268 0.2890178 0.4294538
0001e0 21 c3 f3 bd 69 dc d3 3e 5b 1b fe 3d f8 08 15 3e
       -0.11902452 0.41379097 0.124075614 0.14554203
0001f0 d5 70 98 bd 69 52 c1 3d 64 2e 1d 3e 11 b8 e7 be
       -0.07443396 0.094395466 0.15349728 -0.4525762
000200 71 3f dd be 46 f3 17 be e8 f5 f9 3b 7b a9 04 3e
       -0.43212464 -0.14838895 0.0076281913 0.12955277
000210 1b db a7 be 33 0b 2a be 21 7c 2b bf 23 38 29 3c
       -0.32784352 -0.16605835 -0.6698628 0.010328325
000220 e3 da 52 3e 4b 90 05 3c 21 94 21 be 36 78 18 be
       0.20591311 0.008152078 -0.15779163 -0.14889607
000230 04 e4 34 be 2e f6 95 3d f6 ad 52 bd 3c bb f5 bd
       -0.17665106 0.07322346 -0.051435433 -0.11998603
000240 1d 25 3d 3e 01 61 47 3e a4 d6 a8 3e 3d f3 37 be
       0.18471189 0.19470598 0.32976258 -0.17963882
000250 f0 c4 3d bc 72 e3 47 3f fa 76 f2 3d 79 a4 15 bf
       -0.011582598 0.7808143 0.11839099 -0.5845409
000260 97 c6 d7 3e c3 d7 c3 be 63 f2 c2 be 38 f6 c5 bd
       0.421437 -0.3825055 -0.3807555 -0.09666103
000270 a9 3e 07 bf 4a 5f 1b 3e 98 61 76 3d 55 1b f8 3e
       -0.52829987 0.15173069 0.060151666 0.48458353
000280 78 e0 08 bc 6f 9c fb bd ed 33 f8 bd 1d c7 6b 3f
       -0.008354299 -0.12285697 -0.12119279 0.921007
000290 aa 43 28 bd 24 dc d8 be 61 f0 b5 3e bb 22 f5 3e
       -0.041080154 -0.42355454 0.35534957 0.4787806
0002a0 27 e0 a2 be 84 af 2a 3f fc ac 56 bf 49 9a 5f bf
       -0.3181164 0.66674066 -0.83857703 -0.87344795
0002b0 59 7e 60 be 77 36 7c bd 19 7a 00 be 6a c2 47 3e
       -0.21923198 -0.06157538 -0.12546577 0.19507757
0002c0 c7 ee 06 bf a2 c5 86 bd f3 22 f2 3e c9 ba e9 be
       -0.52708095 -0.06580664 0.4729229 -0.45650318
0002d0 56 b0 ea be 26 42 46 3e 53 9d a2 3e ad 54 2d 3f
       -0.4583766 0.19361171 0.31760654 0.6770733
0002e0 3a fc a9 3e 36 9d 7a 3e ae a4 b9 3d 75 04 09 bf
       0.33200246 0.24474034 0.09064613 -0.53522426
0002f0 67 a0 fb bd 30 39 0e bf c6 ce e4 3e 24 7c aa 3c
       -0.12286454 -0.5555601 0.44689006 0.020811148
000300 f9 cb de 3d 3f f3 19 bd b4 80 40 3e 2c 38 34 bf
       0.108787484 -0.037585493 0.18799096 -0.7039821
000310 a1 ff 97 bf 89 1f 94 bf 02 de 42 bd 01 a2 94 3e
       -1.1874887 -1.1572124 -0.047575004 0.2902985
000320 10 7e 85 3e d4 0d 46 bf 28 a0 a4 bf 3e e8 96 bf
       0.2607274 -0.7736485 -1.2861376 -1.1789625
000330 9d 04 b1 bd cd ac 56 bf 8c 96 09 3e e1 3e b2 bb
       -0.08643458 -0.83857423 0.13436335 -0.0054396247
000340 b7 cb 3b 3e a4 7f d4 3d d0 b8 94 be 65 d6 42 bf
       0.1833943 0.10375908 -0.2904725 -0.7610839
000350 25 46 65 bf 5c 4b 20 3e bd 30 8b 3e 7b 50 06 3e
       -0.8956016 0.15653747 0.27185622 0.13116638
000360 34 61 e3 3e 32 f2 65 bd 73 01 5b be 41 6c dd bd
       0.44410098 -0.05613918 -0.21387272 -0.108116634
000370 bc cf c1 bd 36 d8 8e 3e 89 cf 58 3e a5 5c d0 3e
       -0.0946345 0.2789933 0.21172918 0.40695682
000380 90 a0 51 3e 95 79 2a be ee f4 3f be 25 68 6d 3d
       0.20471406 -0.16647942 -0.18745777 0.057960648
000390 c3 d5 ba bd de 2f db 3c 11 1f fa 3e 42 02 21 3e
       -0.09122803 0.026756223 0.48851827 0.15723518
0003a0 94 0d 72 bc 31 b4 c8 3d 0e 13 af bd c5 63 ad bc
       -0.014773745 0.09799994 -0.08548556 -0.021165738
0003b0 a7 5f e1 be d6 ed c5 be ed 7c 17 3e 9e 60 f6 be
       -0.4401829 -0.38658017 0.14793749 -0.48120588
0003c0 75 a9 81 be 1f 73 ca bf f9 29 ba be 3d 82 0f 3d
       -0.25324598 -1.5816382 -0.36360148 0.035036314
0003d0 9c 02 92 3e 59 e9 9e 3e 45 7d 62 bf 54 6b b7 3e
       0.28517616 0.31037405 -0.88472396 0.35824072
0003e0 97 ec b9 3e f6 75 ad bd d9 2e aa 3e 76 23 1f 3d
       0.36313316 -0.08469765 0.33238867 0.038852178
0003f0 ef ca 93 bf 5c 99 54 3c f7 a4 77 3e 0b 2a 23 3e
       -1.1546305 0.012976017 0.24184023 0.15934007

linear2.bias f4 [32]
000000 1e 86 7d bd e0 43 f9 3d da ed 60 bd 0b f5 ea 3d
       -0.061895482 0.12171149 -0.054914333 0.114725195
000010 3b 26 03 3e 4c 38 d2 3d 1f 9a 84 bd 48 0c 10 3d
       0.12807553 0.10264644 -0.06474709 0.035167962
000020 43 e9 99 3d cc b2 8c 3d 7f a4 4a 3d 49 a9 d8 bd
       0.07515194 0.0687004 0.049473282 -0.105791636
000030 53 41 f6 bc e4 a0 9b 3d d7 1f cb 3d 6e ff 4e 3c
       -0.030060446 0.07599047 0.09918182 0.012634141
000040 c0 b7 7b 3d e5 17 81 bd 84 76 bc bd 90 76 87 bd
       0.061454535 -0.06303386 -0.092022926 -0.06614411
000050 3e 61 c9 3d c6 65 ae 3c 3e ed 8c 3d 2d 27 58 bc
       0.098330006 0.021288764 0.06881188 -0.013192934
000060 59 15 07 bd 86 4e 07 bd b0 e4 fc 3d ac b2 b4 bd
       -0.032979343 -0.03303387 0.12348306 -0.088231415
000070 2c f5 43 bd ff 15 d6 bd 56 88 aa bd 24 2f 90 bd
       -0.047841236 -0.10453414 -0.08326785 -0.07040241

bn2.weight f4 [32]
000000 05 78 85 3f 97 82 04 3f 50 5f 90 3f 01 ef 2f 3f
       1.0427252 0.51761764 1.1279087 0.68724066
000010 bc aa 39 3f 67 6f 93 3f ac 21 77 3f a3 6e 15 3f
       0.72526145 1.1518372 0.96535754 0.58371943
000020 9d 8f 10 3f 85 9a 05 3f ac 7a 0e 3f d4 c1 41 3f
       0.56469136 0.52188903 0.5565593 0.75686383
000030 f8 0a 2a 3f c4 7b 7b 3f aa 2e 32 3f 08 bf 7b 3f
       0.66422987 0.98235726 0.69602454 0.98338366
000040 de 42 38 3f 6e 22 57 3f 40 4d 76 3f 2f 55 08 3f
       0.7197703 0.8403691 0.96211624 0.5325498
000050 92 62 05 3f ef 31 8c 3f 4c cf 39 3f d3 c1 b6 3e
       0.5210353 1.0952739 0.72581935 0.3569475
000060 23 13 20 3f 9a da 32 3f 13 f3 0d 3f 1a fa 60 3f
       0.625292 0.6986481 0.55449027 0.87881625
000070 f3 e1 b0 3f 35 aa 46 3f 11 88 14 3f a3 8c 48 3f
       1.3818954 0.77603465 0.5802012 0.78339595

bn2.bias f4 [32]
000000 c8 bd 55 3e a0 d0 3f 3e 29 86 80 3e 24 10 e2 bd
       0.20873177 0.18731928 0.25102356 -0.11038235
000010 ea f7 c8 bd fa d5 8f 3e 4e 6d 4e bd 45 f6 72 be
       -0.09812911 0.2809294 -0.05039721 -0.23726757
000020 c2 bf c9 be 53 b6 9e be fd ad 11 3d 44 82 6a bd
       -0.39404112 -0.30998477 0.03556632 -0.057253137
000030 05 bc a6 bd f0 14 27 3e 06 f7 38 be 77 33 6e 3e
       -0.08141331 0.16316581 -0.18062982 0.2326182
000040 ba 14 50 bd 33 e6 3f 3c ee 7d c7 3e 97 e2 a1 3d
       -0.050801016 0.011712599 0.38963264 0.07904547
000050 2e 0a e4 bd c3 94 45 3e 0f 02 d7 bd 33 b8 a4 bd
       -0.11134754 0.1929503 -0.104984395 -0.08042946
000060 38 5f 3f be 17 f1 30 be 70 70 5c 3d 6c c6 8b 3b
       -0.18688667 -0.17279468 0.053818166 0.004265597
000070 a3 ba 6f be 0c cc 31 be 92 c9 60 3d 6a 9a fd ba
       -0.2341104 -0.17362994 0.054879732 -0.0019348387

bn2.running_mean f4 [32]
000000 21 d7 2e bf 83 9b a5 3f 31 14 57 3e db fd d3 bf
       -0.6829701 1.2938083 0.21003796 -1.6561846
000010 a2 e7 95 bf 64 d2 67 bd 50 76 26 c0 1b 0b 89 c0
       -1.1711314 -0.05659713 -2.6009712 -4.2826056
000020 b4 34 ff be da 4e d0 bf 42 b5 59 c0 5e 6b 7f c0
       -0.49844897 -1.6274064 -3.401688 -3.9909282
000030 b1 99 1b 40 0d d5 b9 bf 50 de 83 c0 ed 9a 95 bf
       2.4312556 -1.4518143 -4.1208878 -1.1687905
000040 d3 d1 ae bf f6 52 8f 3e 85 2f 4c bf 8e 4e 28 3f
       -1.3657783 0.27992982 -0.7976001 0.65744865
000050 63 34 20 bf 62 04 88 3f be 2f 9a bf 3c 14 8d bf
       -0.62579936 1.0626338 -1.204582 -1.10218
000060 bf e4 7a c0 ce 7f 7e c0 74 93 df bc 0c fb 88 3f
       -3.9202116 -3.9765506 -0.02729199 1.0701613
000070 56 b3 77 bf 67 c5 08 c0 97 e5 95 bf 36 e2 c2 bf
       -0.9675802 -2.1370485 -1.171069 -1.5225284

bn2.running_var f4 [32]
000000 a9 69 80 41 48 33 b4 41 0c 53 86 41 7e ac 78 41
       16.051592 22.52504 16.79055 15.542112
000010 38 d8 e8 41 2e 0d 8a 41 61 d1 8c 41 f3 1b 5d 41
       29.105576 17.256435 17.602236 13.819324
000020 be 1d 39 41 4a d6 90 41 3b 2b 3b 42 11 7b 3a 42
       11.569761 18.104633 46.792217 46.620182
000030 6b 26 a5 41 8d c8 6e 41 3c 67 18 42 d6 58 70 41
       20.643759 14.923963 38.100815 15.021688
000040 c8 17 d1 41 08 86 8a 41 be aa 7c 41 4a 24 53 41
       26.136612 17.315445 15.791685 13.19636
000050 53 c5 ad 41 ef 54 87 41 4f 29 b3 41 9b 77 36 41
       21.72135 16.916471 22.39517 11.404201
000060 47 58 e1 41 6b 28 0d 42 3b ff a5 41 a1 09 87 41
       28.168104 35.28947 20.749624 16.879702
000070 86 38 90 41 24 cf 0b 42 f8 57 8f 41 75 6d 7f 41
       18.0276 34.952286 17.917953 15.964223

linear3.weight f4 [16, 32]
000000 7c 27 31 bf 8c d9 75 be 79 ed 36 bf 23 c7 c4 bd
       -0.69200873 -0.24008769 -0.71456105 -0.09608295
000010 fc df 3c bf 32 29 23 bf 80 27 32 bf de 86 4d bd
       -0.73779273 -0.63734734 -0.6959152 -0.050177447
000020 cc f7 01 3e d6 8f 9b bc 0a 83 8a bf 72 ad a7 bf
       0.12692183 -0.018989485 -1.082124 -1.3099806
000030 88 7b 7d be 5f bf 3b bf 1e 0c 98 bf 84 51 74 3d
       -0.24754155 -0.73338884 -1.1878698 0.05964805
000040 0f 81 45 be bd 8f e0 be d6 e4 0c bf 98 fb e3 be
       -0.19287513 -0.43859664 -0.55036676 -0.44527888
000050 ba 00 60 3e 4d 7b f4 be ba de c3 bc 7c 75 79 3e
       0.21875277 -0.4775032 -0.023909915 0.24361223
000060 aa 4d 65 bf 45 29 4b bf 83 f4 4e 3e 9e 8c e8 bb
       -0.8957163 -0.7935985 0.20210461 -0.007096841
000070 55 0f b7 bf d9 26 68 bf e5 f3 36 be f1 52 29 bf
       -1.4301554 -0.90684277 -0.17866476 -0.66142184
000080 d9 2c c3 bd 20 85 3e be f6 27 b2 3c bf b3 0c bd
       -0.095300384 -0.1860547 0.02174757 -0.034351107
000090 21 9d ab bc 3a 15 54 3d ee c6 66 3d 9b f1 dd 3e
       -0.020948948 0.051778056 0.056342058 0.43348393
0000a0 e8 77 91 bf 54 85 11 bf 7b 92 89 3c 7c d6 e5 bd
       -1.1364717 -0.5684407 0.01679348 -0.1122255
0000b0 9e 2c 79 be c1 01 93 3d d7 7b 03 3e 30 c9 50 3e
       -0.24333426 0.07178069 0.1284021 0.20389247
0000c0 ab fe 43 bf 18 8d 9a 3d e4 b8 98 bb b5 12 5d 3c
       -0.7656047 0.07546443 -0.0046607126 0.01349323
0000d0 a6 f3 c3 bf a5 44 44 3d d9 45 8f bf ad 2d 78 bf
       -1.5308731 0.047917027 -1.1193191 -0.96944696
0000e0 08 21 5b 39 30 6d 0a be aa 8e c4 bf 55 aa 08 bc
       0.00020897773 -0.13518214 -1.5356038 -0.008341392
0000f0 32 bc f8 be 81 a5 c6 3d 19 2e db 3d a0 38 59 be
       -0.48581082 0.09699536 0.10702152 -0.21213007
000100 03 f6 8f 3d 9c cb 68 3e ef 56 5c bd ed 4e 0e 3e
       0.07029345 0.22733921 -0.053793844 0.13897295
000110 d5 0f c5 3c 87 64 42 bd 99 9c a6 bc 89 37 ae 3d
       0.0240554 -0.04745915 -0.020338343 0.08506686
000120 65 df 90 bf 5a ea 93 bf 0e ea 19 bc 40 a7 80 3e
       -1.1318175 -1.1555893 -0.009394182 0.25127602
000130 2a 96 8a 3e ae 0e aa bd de 96 e4 3d 22 3c 9c 3e
       0.2706769 -0.08303581 0.11161588 0.30514628
000140 b4 e1 32 be a0 62 0e bd fc 16 16 bd 89 3e 4f 3d
       -0.17468911 -0.034762025 -0.036643013 0.050596748
000150 35 c4 20 bf 79 58 71 3c a3 09 8e bd 16 7c 20 bf
       -0.6279939 0.014730566 -0.06935432 -0.6268934
000160 04 46 03 3e 18 9e b6 3e 92 c7 02 bf 49 0a b9 3c
       0.12819678 0.3566749 -0.5108577 0.022587912
000170 e2 26 db bd 0d 36 47 bd 2f 22 8b 3d a4 44 98 3e
       -0.10700776 -0.04863553 0.067936294 0.2973987
000180 a6 39 51 be 42 d4 50 bf ed c3 21 be 12 e1 0e be
       -0.20432147 -0.8157388 -0.15797396 -0.13953045
000190 6d b0 8d bf ec 11 00 bf 4e cb 24 be 80 15 8f 3e
       -1.1069466 -0.50027347 -0.1609318 0.2794609
0001a0 2a b0 a9 be 7c de 68 3d 91 b5 84 be 23 ad 1b bf
       -0.33142215 0.056852803 -0.25919774 -0.6081106
0001b0 5f 41 6f 3c b2 90 c0 be ff 1e 17 bf 48 4d cf 3c
       0.014602988 -0.37610394 -0.5903167 0.025305405
0001c0 09 fe f7 bd 17 f7 ba be 19 f4 9f be c4 e2 8e be
       -0.12109 -0.3651664 -0.3124092 -0.27907383
0001d0 4e a4 0d 3e 91 14 98 be 09 1d 2b bb 57 b9 10 bd
       0.13832209 -0.2970319 -0.0026109836 -0.035333004
0001e0 6b 6c ad be 44 e1 bc be 63 ee b9 3c 24 fb e0 3c
       -0.3387178 -0.36890614 0.02269668 0.027463503
0001f0 d6 f8 f2 bd 28 3e 58 bf a5 ba 3f 3d b0 b0 ba bd
       -0.11863868 -0.8446984 0.046808857 -0.09115732
000200 bc 08 2b be 79 64 af bd 78 ee ab bd 73 fc 29 3e
       -0.1670255 -0.085640855 -0.08395094 0.16600208
000210 70 8a d9 be c0 12 58 3d ee 98 35 bb af d9 78 3d
       -0.42488432 0.052752256 -0.0027709561 0.060754474
000220 1d d3 2a bf 3a 16 fb be 84 63 06 be af 1c 7c be
       -0.66728383 -0.49040395 -0.131239 -0.24620317
000230 4f d9 54 bc e2 42 92 bc 94 78 42 bd c0 a0 38 3d
       -0.0129912635 -0.017854158 -0.047478274 0.04507518
000240 6d 73 06 bf 1f 3a 01 be c9 bc 37 3e f7 c9 ce 3c
       -0.52519876 -0.12619828 0.1794311 0.025242789
000250 98 a9 6b bf 01 1f 69 bf f9 b7 b3 be ea 63 7c bf
       -0.92055655 -0.91062933 -0.35101297 -0.98589957
000260 ca d9 8f 3d 02 e5 5d be ab ec 67 bf 4a 54 e9 3e
       0.07023962 -0.21669391 -0.905955 0.4557212
000270 c1 30 bc be 17 d0 26 3c dd a2 19 3d 05 66 dd 3c
       -0.36755946 0.010181448 0.037508834 0.027026186
000280 42 fa 2e bf d2 a8 5a bf e2 eb 3f bf da b3 92 bf
       -0.68350613 -0.8541385 -0.74969304 -1.1461136
000290 76 e5 af 3c 00 ff 3b bf c9 7d d9 be 67 82 72 3e
       0.02147172 -0.73435974 -0.4247878 0.23682557
0002a0 fd 2d ea 3d 15 bc d2 bc 48 d2 16 be d0 98 a6 3d
       0.11434553 -0.02572445 -0.14728653 0.081346154
0002b0 40 61 89 bf e7 af 3a bf 6f 3f c4 bd bd d3 80 3e
       -1.0732803 -0.72924656 -0.095824115 0.25161543
0002c0 ba a5 d3 3d aa e4 3d bf 2b d9 61 bf 89 96 af be
       0.10334344 -0.7417704 -0.88222 -0.34294537
0002d0 70 97 a2 be b2 85 05 bf 71 ee b4 bd 47 8a 31 be
       -0.31756163 -0.5215713 -0.088345416 -0.17337905
0002e0 76 c3 5f 3e 4e ec de 3c 2d f9 c2 be ed da 98 be
       0.21851906 0.027212288 -0.3808073 -0.29854527
0002f0 b6 42 13 bf 16 b9 f1 bd c9 95 7d bf 86 2e 5c 3d
       -0.5752367 -0.118028805 -0.9905668 0.053755306
000300 75 29 93 bf 92 97 2d be 82 10 8b bf 3f 12 cb bc
       -1.1497027 -0.1695235 -1.0864413 -0.024788974
000310 20 a4 aa bc 19 55 a0 bf c4 3f 6d bf 6c dd 64 3e
       -0.020830214 -1.252597 -0.92675424 0.2235009
000320 fb 06 c3 bb 75 b4 4b 3e c2 41 c8 3d 3b 07 e4 3d
       -0.00595176 0.19893058 0.09778167 0.111341916
000330 c9 28 04 bc 7d af 85 bf 2b 79 21 3e 29 fe d3 3b
       -0.008066365 -1.044418 0.15768878 0.0064695072
000340 50 02 d0 39 89 2f b4 bf 81 25 c6 bf 24 c0 8f be
       0.00039674575 -1.4077007 -1.5480195 -0.2807628
000350 25 bd 34 3c 4c 9e 82 bf 63 85 aa bc 31 33 6a 3d
       0.011031424 -1.0204558 -0.020815557 0.057177726
000360 8c aa 9b 3e c0 39 6a bc 55 14 d1 3d 08 30 5c bf
       0.30403554 -0.014295995 0.10208956 -0.8601079
000370 13 6c 1b bf 7a da ff 3c 78 0a 07 be d0 6b 02 be
       -0.60711783 0.031232107 -0.13187587 -0.1273644
000380 d5 e9 6c bf ff 0c e7 be a1 63 9c bf 40 c9 bc be
       -0.925443 -0.45127103 -1.2217904 -0.36872292
000390 b1 78 0c be df 73 91 bf 6c f0 52 bf 4b 05 1e 3e
       -0.13717915 -1.1363486 -0.82398105 0.15431707
0003a0 4c fd 3b 3d 85 e7 4c 3e de 2b e4 bb 16 82 97 b9
       0.04589586 0.20010193 -0.006963237 -0.00028897886
0003b0 e0 0f 04 bf 3d 40 59 bf 3f d6 fe 3d 35 b8 fa 3d
       -0.51586723 -0.84863645 0.12443208 0.12242166
0003c0 b4 67 bd 3b 57 5b 87 bf 7e 83 96 bf c1 bb 4a bf
       0.0057801846 -1.057475 -1.1758878 -0.7919274
0003d0 37 19 1f be fb f6 37 bf c4 dc 95 3d c8 a3 92 bc
       -0.15536962 -0.7186124 0.07317498 -0.017900363
0003e0 10 21 62 3e e7 36 1d 3e e8 a6 3f bc 3e 27 aa be
       0.22082925 0.15352975 -0.011697508 -0.33233064
0003f0 78 1f 12 bf ca 3b 10 bc a2 86 c4 be 61 48 61 3d
       -0.5707927 -0.008803317 -0.38383967 0.055000667

linear3.bias f4 [16]
000000 55 8b 2c 3f 2f 57 48 3f b9 6d 54 3f 85 bc ea 3e
       0.67400104 0.7825803 0.82979923 0.45846954
000010 71 90 2c bd 42 5d 05 3f da 04 85 3f 67 74 88 3f
       -0.042129938 0.52095425 1.0392106 1.0660523
000020 7f f7 82 3f 44 8a c0 3e 19 e7 8a 3f 60 37 88 3e
       1.023178 0.37605488 1.0851775 0.26604748
000030 8f 7c 09 3f a0 b7 18 3f a1 23 bd 3e 79 ad 4b 3f
       0.53705686 0.5965519 0.36941245 0.79561573

linear4.weight f4 [1, 16]
000000 9b 59 4e bf 97 35 79 be 72 be 3c be 22 2f e2 be
       -0.8060548 -0.24336849 -0.18432024 -0.44176584
000010 78 8c 2a bd a1 70 98 3e e0 b2 de 3e b4 fe 04 3f
       -0.041637868 0.2977343 0.43495846 0.51951146
000020 ad a7 8b 3e 0d 5b 2c 3e dc 47 0f 3f 7b 22 ed bd
       0.27276364 0.16831608 0.55969024 -0.11578842
000030 7e 36 18 3e 8e ff 39 3e 78 f6 13 be a0 f3 37 be
       0.14864537 0.18163893 -0.14449489 -0.1796403
